…
  File "/home/radoslavralev/miniconda3/envs/gfn-diffusion/lib/python3.8/site-packages/numpy/lib/histograms.py", line 780, in histogram
    bin_edges, uniform_bins = _get_bin_edges(a, bins, range, weights)
  File "/home/radoslavralev/miniconda3/envs/gfn-diffusion/lib/python3.8/site-packages/numpy/lib/histograms.py", line 426, in _get_bin_edges
    first_edge, last_edge = _get_outer_edges(a, range)
  File "/home/radoslavralev/miniconda3/envs/gfn-diffusion/lib/python3.8/site-packages/numpy/lib/histograms.py", line 323, in _get_outer_edges
    raise ValueError(
ValueError: autodetected range of [nan, nan] is not finite
GFN(
  (t_model): TimeEncodingPIS(
    (t_model): Sequential(
      (0): Linear(in_features=128, out_features=64, bias=True)
      (1): GELU(approximate='none')
      (2): Linear(in_features=64, out_features=64, bias=True)
    )
  )
  (s_model): StateEncodingPIS(
    (x_model): Linear(in_features=66, out_features=64, bias=True)
  )
  (joint_model): JointPolicyPIS(
    (model): Sequential(
      (0): GELU(approximate='none')
      (1): Sequential(
        (0): Linear(in_features=64, out_features=64, bias=True)
        (1): GELU(approximate='none')
      )
      (2): Sequential(
        (0): Linear(in_features=64, out_features=64, bias=True)
        (1): GELU(approximate='none')
      )
      (3): Linear(in_features=64, out_features=132, bias=True)
    )
  )
  (langevin_scaling_model): LangevinScalingModelPIS(
    (lgv_model): Sequential(
      (0): Linear(in_features=128, out_features=64, bias=True)
      (1): Sequential(
        (0): GELU(approximate='none')
        (1): Linear(in_features=64, out_features=64, bias=True)
      )
      (2): Sequential(
        (0): GELU(approximate='none')
        (1): Linear(in_features=64, out_features=64, bias=True)
      )
      (3): GELU(approximate='none')
      (4): Linear(in_features=64, out_features=1, bias=True)
    )
  )
)
tensor([[[ 0.0000e+00,  0.0000e+00,  0.0000e+00,  ...,  0.0000e+00,
           0.0000e+00,  0.0000e+00],
         [ 5.7864e-02, -5.2476e-02, -2.9190e-02,  ...,  1.5684e-01,
          -9.2661e-03, -1.2121e-03],
         [ 3.2799e-01, -1.2351e-01, -1.6674e-01,  ...,  6.0176e-02,
          -2.0737e-01, -1.3859e-01],
         ...,
         [-1.0290e+00, -2.0935e-01,  1.0630e-01,  ...,  6.9670e-01,
…
