GFN(
  (t_model): TimeEncodingPIS(
    (t_model): Sequential(
      (0): Linear(in_features=128, out_features=64, bias=True)
      (1): GELU(approximate='none')
      (2): Linear(in_features=64, out_features=64, bias=True)
    )
  )
  (s_model): StateEncodingPIS(
    (x_model): Linear(in_features=66, out_features=64, bias=True)
  )
  (joint_model): JointPolicyPIS(
    (model): Sequential(
      (0): GELU(approximate='none')
      (1): Sequential(
        (0): Linear(in_features=64, out_features=64, bias=True)
        (1): GELU(approximate='none')
      )
      (2): Sequential(
        (0): Linear(in_features=64, out_features=64, bias=True)
        (1): GELU(approximate='none')
      )
      (3): Linear(in_features=64, out_features=132, bias=True)
    )
  )
  (langevin_scaling_model): LangevinScalingModelPIS(
    (lgv_model): Sequential(
      (0): Linear(in_features=128, out_features=64, bias=True)
      (1): Sequential(
        (0): GELU(approximate='none')
        (1): Linear(in_features=64, out_features=64, bias=True)
      )
      (2): Sequential(
        (0): GELU(approximate='none')
        (1): Linear(in_features=64, out_features=64, bias=True)
      )
      (3): GELU(approximate='none')
      (4): Linear(in_features=64, out_features=1, bias=True)
    )
  )
)












































































































  5%|████▌                                                                                             | 1167/25001 [08:05<2:45:24,  2.40it/s]
Traceback (most recent call last):
  File "train.py", line 356, in <module>
    train()
  File "train.py", line 323, in train
…
