GFN(
  (t_model): TimeEncodingPIS(
    (t_model): Sequential(
      (0): Linear(in_features=128, out_features=64, bias=True)
      (1): GELU(approximate='none')
      (2): Linear(in_features=64, out_features=64, bias=True)
    )
  )
  (s_model): StateEncodingPIS(
    (x_model): Linear(in_features=66, out_features=64, bias=True)
  )
  (joint_model): JointPolicyPIS(
    (model): Sequential(
      (0): GELU(approximate='none')
      (1): Sequential(
        (0): Linear(in_features=64, out_features=64, bias=True)
        (1): GELU(approximate='none')
      )
      (2): Sequential(
        (0): Linear(in_features=64, out_features=64, bias=True)
        (1): GELU(approximate='none')
      )
      (3): Linear(in_features=64, out_features=132, bias=True)
    )
  )
  (langevin_scaling_model): LangevinScalingModelPIS(
    (lgv_model): Sequential(
      (0): Linear(in_features=128, out_features=64, bias=True)
      (1): Sequential(
        (0): GELU(approximate='none')
        (1): Linear(in_features=64, out_features=64, bias=True)
      )
      (2): Sequential(
        (0): GELU(approximate='none')
        (1): Linear(in_features=64, out_features=64, bias=True)
      )
      (3): GELU(approximate='none')
      (4): Linear(in_features=64, out_features=1, bias=True)
    )
  )
)
{'train/loss': inf, 'eval/log_Z': tensor([nan, nan, nan,  ..., nan, nan, nan], device='cuda:0'), 'eval/log_Z_lb': tensor(nan, device='cuda:0'), 'eval/log_Z_learned': tensor(nan, device='cuda:0'), 'eval/mean_log_likelihood': tensor(nan, device='cuda:0'), '1-Wasserstein': 0.0, '2-Wasserstein': 0.0, 'Linear_MMD': 0, 'Poly_MMD': 0, 'RBF_MMD': 0, 'Mean_MSE': 0, 'Mean_L2': 0, 'Mean_L1': 0, 'Median_MSE': 0, 'Median_L2': 0, 'Median_L1': 0}
…
