
  0%|                                                                                    | 0/25001 [00:00<?, ?it/s]
GFN(
  (t_model): TimeEncodingPIS(
    (t_model): Sequential(
      (0): Linear(in_features=128, out_features=64, bias=True)
      (1): GELU(approximate='none')
      (2): Linear(in_features=64, out_features=64, bias=True)
    )
  )
  (s_model): StateEncodingPIS(
    (x_model): Linear(in_features=66, out_features=64, bias=True)
  )
  (joint_model): JointPolicyPIS(
    (model): Sequential(
      (0): GELU(approximate='none')
      (1): Sequential(
        (0): Linear(in_features=64, out_features=64, bias=True)
        (1): GELU(approximate='none')
      )
      (2): Sequential(
        (0): Linear(in_features=64, out_features=64, bias=True)
        (1): GELU(approximate='none')
      )
      (3): Linear(in_features=64, out_features=132, bias=True)
    )
  )
  (langevin_scaling_model): LangevinScalingModelPIS(
    (lgv_model): Sequential(
      (0): Linear(in_features=128, out_features=64, bias=True)
      (1): Sequential(
        (0): GELU(approximate='none')
        (1): Linear(in_features=64, out_features=64, bias=True)
      )
      (2): Sequential(
        (0): GELU(approximate='none')
        (1): Linear(in_features=64, out_features=64, bias=True)
      )
      (3): GELU(approximate='none')
      (4): Linear(in_features=64, out_features=1, bias=True)
    )
  )
)
tensor([[-0.5246, -0.4571,  0.1821,  ..., -1.9762,  0.5600,  0.2870],
        [-0.8447, -0.6921,  0.8048,  ..., -1.3484, -0.2579, -1.5612],
        [-1.2525, -1.6068,  1.3103,  ...,  0.6499, -1.0489, -0.3733],
        ...,
        [-1.0650,  0.8292,  1.1915,  ...,  0.5825,  0.6297, -1.1523],
        [-0.9376, -0.2073,  1.6736,  ...,  0.2296, -1.0960,  1.3662],
…
